Histopathologic_Cancer_Detection/weights.pt (torch, 128562 bytes, 12 tensors)

conv1.weight f4 [8, 3, 3, 3]
-0.16137095 0.16455336 0.11517495 -0.1393837 -0.146869 0.16584718 0.18518595 0.03868331
-0.04283494 0.11695222 0.086366065 -0.0110002365 0.15491535 0.13793868 0.07009765 0.092103295
-0.15177685 -0.049073163 0.009407674 0.03692581 -0.033037573 0.061484173 0.052516386 -0.17965874
0.04639589 -0.013165438 -0.12514843 0.03136098 -0.009311363 -0.065635644 -0.15953565 0.1944875
-0.09397588 0.05446479 0.19495556 -0.010434979 -0.11785582 -0.15798801 0.06228545 -0.1027419
0.037246503 0.067723155 -0.03544492 0.16478263 -0.030958658 -0.034843378 -0.07445117 0.10344323
-0.08503107 0.07775303 0.0054361825 0.17009982 -0.05189527 -0.071024135 -0.010468504 -0.104713365
0.0955967 -0.062333625 0.092918746 0.12755248 0.12817715 -0.027018787 0.12193372 -0.11561483
-0.20621935 -0.020031527 -0.16149169 -0.16204634 0.039350618 0.1546265 -0.097144544 -0.017093973
-0.13913308 0.03411034 0.06492102 -0.0363772 0.14878976 -0.15075317 -0.022526406 -0.111004286
0.17637937 0.16060589 0.19882965 0.18257251 0.07402503 -0.15498462 -0.12719385 0.06803309
-0.16196127 0.123694554 0.0830973 0.059198838 -0.15918526 0.13895804 -0.02395147 -0.06847894
0.13044952 0.03583323 -0.07537075 0.03437856 -0.12840392 0.17492586 0.15730815 0.07500425
0.10075998 -0.17999454 -0.105849154 -0.19072069 -0.15307826 -0.17593785 0.15685359 0.1254032
0.12887788 -0.07012593 0.1965796 -0.007932841 -0.029744757 0.029388122 0.093177274 -0.12145975
0.2068036 -0.002270928 0.072642736 -0.124756865 0.041513264 -0.06559753 -0.17335874 -0.096908145
0.010608009 -0.03413384 -0.11230021 0.15115471 0.10890112 -0.174468 0.051796813 0.018200774
-0.026129365 0.012902474 -0.05935784 0.053676113 -0.16392201 -0.12579134 0.10334058 -0.155592
0.11884317 0.19166395 -0.1570868 -0.073309444 0.1837338 0.011459778 0.042685032 0.028979162
0.089544624 -0.072668895 0.022261526 0.13170397 -0.019805115 -0.17327923 0.07173723 -0.05474839
-0.04738905 0.09695236 0.0118679125 -0.16082191 -0.12779768 -0.03269863 -0.06710698 -0.09628134
-0.14858535 0.13165796 0.078171544 0.04874409 0.030596415 0.019951534 0.18745472 0.060447626
-0.009714288 -0.083511665 0.0888011 -0.17979872 0.06151422 -0.18244258 -0.08139948 0.11967817
-0.11215274 0.1251648 -0.093599685 0.1931134 0.058631144 -0.07516428 0.124447644 -0.19489941
-0.14199078 -0.13379924 0.021065995 -0.00037701774 -0.19054855 0.18810247 0.027408928 -0.07551973
-0.016465629 -0.09461019 0.052870005 0.07243394 -0.068460695 -0.010675077 0.12267124 -0.086448416
-0.004082185 -0.015260539 -0.10230638 0.043394975 0.028583268 -0.13505325 0.055363987 0.2054645
00000000: 6d3e 25be ad80 283e d8e0 eb3d 9aba 0ebe
00000010: d464 16be d8d3 293e 63a1 3d3e 6472 1e3d
00000020: b173 2fbd a584 ef3d b1e0 b03d 563a 34bc
00000030: 21a2 1e3e cc3f 0d3e 5b8f 8f3d a7a0 bc3d
00000040: 646b 1bbe f100 49bd a522 1a3c 853f 173d
00000050: 6852 07bd d4d6 7b3d 6c1b 573d 76f8 37be
00000060: 9e09 3e3d d9b3 57bc e926 00be 5f74 003d
00000070: b08e 18bc fb6b 86bd 505d 23be bb27 473e
00000080: 6d76 c0bd 7916 5f3d 6ea2 473e 79f7 2abc
00000090: 645e f1bd 9cc7 21be 071f 7f3d 586a d2bd
000000a0: ca8f 183d 70b2 8a3d b12e 11bd c7bc 283e
000000b0: 039d fdbc eeb7 0ebd db79 98bd 0bda d33d
000000c0: c524 aebd fb3c 9f3d 0122 b23b a62e 2e3e
000000d0: 2290 54bd 1a75 91bd 1784 2bbc f673 d6bd
000000e0: 34c8 c33d 8b51 7fbd 2f4c be3d 1e9d 023e
000000f0: df40 033e 8156 ddbc 63b8 f93d 78c7 ecbd
00000100: 2a2b 53be 2819 a4bc 145e 25be 7aef 25be
00000110: 1d2e 213d 6956 1e3e b8f3 c6bd a908 8cbc
00000120: e778 0ebe 49b7 0b3d 50f5 843d 4200 15bd
00000130: 585c 183e 0a5f 1abe 4c89 b8bc 3756 e3bd
00000140: cb9c 343e df75 243e 009a 4b3e 4af4 3a3e
00000150: 6f9a 973d 4ab4 1ebe 1b3f 02be ef54 8b3d
00000160: 2dd9 25be 9253 fd3d eb2e aa3d 7b7a 723d
00000170: 7601 23be 044b 0e3e e035 c4bc b03e 8cbd
00000180: 8f94 053e ddc5 123d fb5b 9abd 88d0 0c3d
00000190: 517c 03be c41f 333e 6315 213e d49b 993d
000001a0: 405b ce3d 7d50 38be 71c7 d8bd 494c 43be
000001b0: 8cc0 1cbe 0d29 34be 3a9e 203e b269 003e
000001c0: 90f8 033e 2f9e 8fbd 2a4c 493e bff8 01bc
000001d0: 47ab f3bc 5cbf f03c bad3 be3d e4bf f8bd
000001e0: 53c4 533e d9d3 14bb b7c5 943d 8780 ffbd
000001f0: d009 2a3d ff57 86bd f484 31be c777 c6bd
00000200: 37cd 2d3c edcf 0bbd a7fd e5bd 4dc8 1a3e
00000210: 8d07 df3d bda7 32be e528 543d ca19 953c
00000220: 400d d6bc e664 533c 3521 73bd 7cdb 5b3d
00000230: 2cdb 27be 72cf 00be 3aa4 d33d 8253 1fbe
00000240: 0c64 f33d 8e43 443e 5ddb 20be 4323 96bd
00000250: b724 3c3e cbc1 3b3c 80d6 2e3d b565 ed3c
00000260: 2c63 b73d 6ed3 94bd ce5d b63c 68dd 063e
00000270: 563e a2bc 1c70 31be f8ea 923d d93f 60bd
00000280: 051b 42bd f58e c63d a271 423c 80ae 24be
00000290: 65dd 02be 00ef 05bd 626f 89bd 272f c5bd
000002a0: c226 18be 58d1 063e 6718 a03d e2a7 473d
000002b0: 55a5 fa3c 6671 a33c 21f4 3f3e ee97 773d
000002c0: ad28 1fbc 2a08 abbd 5add b53d 281d 38be
000002d0: 56f6 7b3d 3ad2 3abe c5b4 a6bd d419 f53d
000002e0: 56b0 e5bd 342b 003e 31b1 bfbd 85bf 453e
000002f0: 3627 703d bbef 99bd 68de fe3d b693 47be
00000300: 0866 11be ab02 09be 9892 ac3c 77aa c5b9
00000310: 291f 43be ef9d 403e b088 e03c 17aa 9abd
00000320: ede2 86bc fdc2 c1bd 388e 583d 3f58 943d
00000330: 1f35 8cbd 85e6 2ebc 0f3b fb3d de0b b1bd
00000340: dac3 85bb 5707 7abc 0286 d1bd eebe 313d
00000350: 7527 ea3c 664b 0abe 59c5 623d 4965 523e

conv1.bias f4 [8]
0.09027066 -0.08450861 0.18439706 -0.16776365 -0.090150565 0.09577982 0.17686586 0.2059489
00000000: d3df b83d da12 adbd 95d2 3c3e 3cca 2bbe
00000010: dca0 b8bd 3628 c43d 531c 353e 45e4 523e

conv2.weight f4 [16, 8, 3, 3]
0.115215644 -0.030341165 0.020896617 -0.079725035 -0.008060677 0.107796215 0.058771264 -0.12664106
-0.035318177 -0.008125347 0.08556993 0.014093317 -0.15298182 -0.08180636 0.123041384 -0.05332507
0.10258487 0.030134108 0.067713976 -0.09644963 0.01199173 0.00821767 0.12412377 0.08275062
-0.09854237 -0.10702843 -0.15230563 0.019689685 0.08689998 0.1653513 0.028211445 0.03387992
0.08003134 -0.07722062 -0.061847877 0.09897643 0.19619122 -0.06642441 -0.010258542 -0.15289961
-0.040428918 0.13364321 0.12685296 0.0038433126 0.111429445 -0.04566169 0.1322742 -0.098226175
-0.030792302 -0.08642972 -0.12111104 0.05323802 -0.011898776 -0.068715125 0.045920126 -0.13865845
0.0046445755 0.06109931 -0.037394613 0.053234458 0.02854565 -0.08247363 0.030639913 0.09220086
-0.038807254 0.06169059 0.006507641 0.08029901 0.08022226 -0.17113061 0.17520994 0.13141876
0.025468906 0.037325248 -0.093240075 -0.021114593 0.007907581 0.033977658 -0.051886596 0.0098930895
-0.034986846 0.120387346 -0.025204813 0.04160834 0.1515594 -0.090549365 -0.01326656 0.06631387
0.055149425 0.083787076 0.06346234 -0.073862106 0.11151693 0.020782426 0.08470605 0.041137654
-0.025736373 0.068588264 0.14099064 0.1530112 -0.059454344 0.041244857 -0.057899576 0.11406005
0.11668069 -0.023640411 0.015848992 0.106791735 0.076497205 -0.11136334 0.02573715 0.011803659
-0.09191054 -0.042093854 0.021816533 0.006041755 0.010023181 -0.09986123 -0.06709643 0.062089983
-0.11657087 -0.007115945 -0.05161628 0.0625019 0.023506634 -0.08485552 0.011687811 0.11092858
0.014992102 -0.053952564 -0.00067808153 -0.14532901 -0.07736162 -0.018921578 -0.06820457 0.097006716
-0.054870762 0.021297665 -0.07795031 -0.0843724 -0.0033480644 -0.1128584 -0.039356586 -0.14849639
0.09390413 0.11801656 -0.10864187 -0.03255498 -0.08394554 -0.046654526 0.08896959 0.065581374
-0.008004081 0.106896825 0.06302634 0.056859836 -0.08439803 0.063478574 -0.1392357 -0.06178735
0.00507067 0.028059484 -0.15799302 -0.052253455 -0.03417281 -0.09229598 -0.0065723713 0.06473299
-0.063591994 -0.10390569 -0.13863075 -0.0909708 -0.065323785 -0.09397245 -0.053664137 0.06813273
0.023734605 0.09530015 0.101384625 -0.06971315 0.07263522 0.091470756 0.09285898 0.093096666
0.08955712 -0.08091903 -0.13857642 -0.16624646 0.060065445 0.101875305 0.104783125 -0.02369164
-0.06356349 -0.04186056 -0.07196565 -0.03728962 -0.09980668 0.0625369 -0.09568855 -0.056340117
0.099525265 -0.087557144 0.052816164 0.099844106 0.12925948 0.096267566 -0.022782674 0.13134997
0.03714117 -0.027398461 0.05712321 0.035413466 0.112151176 0.09761221 0.09114742 0.053461425
0.0031089035 0.02761799 0.028635172 -0.11287252 0.007463346 -0.04065114 -0.045797724 0.0638092
0.029243873 -0.08196906 -0.05723714 0.13248141 0.13578014 0.10560875 0.05090547 -0.07539004
0.14031029 -0.0022240505 -0.0049367943 0.061608 -0.03707361 -0.004011148 0.1346282 0.06806974
-0.10902362 0.06103948 0.10739342 -0.00017848265 -0.18588485 -0.02818078 -0.055675864 -0.003048666
-0.18808854 0.023772297 0.0061104987 0.02888052 0.20874399 0.08548692 -0.01801437 -0.01261393
00000000: 2ef6 eb3d 098e f8bc 622f ab3c e146 a3bd
00000010: ee10 04bc 43c4 dc3d 23ba 703d 32ae 01be
00000020: cba9 10bd 2d20 05bc 4a3f af3d a8e7 663c
00000030: 44a7 1cbe 188a a7bd 1ffd fb3d 636b 5abd
00000040: 0418 d23d cedb f63c a0ad 8a3d 6287 c5bd
00000050: f678 443c 68a3 063c 9a34 fe3d 2879 a93d
00000060: 95d0 c9bd b931 dbbd 02f6 1bbe 434c a13c
00000070: 9ef8 b13d da51 293e b01b e73c acc5 0a3d
00000080: 79e7 a33d d825 9ebd 3354 7dbd 28b4 ca3d
00000090: 5ae6 483e 8509 88bd 7213 28bc b791 1cbe
000000a0: cb98 25bd c4d9 083e bee5 013e 16e0 7b3b
000000b0: 1f35 e43d c107 3bbd e372 073e ce2a c9bd
000000c0: 2340 fcbc 1102 b1bd 1109 f8bd 1c10 5a3d
000000d0: 15f3 42bc 84ba 8cbd be16 3c3d 7bfc 0dbe
000000e0: 8631 983b 4543 7a3d 182b 19bd 600c 5a3d
000000f0: 91d8 e93c efe7 a8bd 8e00 fb3c ced3 bc3d
00000100: 5bf4 1ebd 46af 7c3d 0d3e d53b cf73 a43d
00000110: 914b a43d dd3c 2fbe 3c6a 333e a492 063e
00000120: 2ba4 d03c 5ce2 183d a7f4 bebd 83f8 acbc
00000130: cc8e 013c 282c 0b3d 0a87 54bd a016 223c
00000140: 5e4e 0fbd a48d f63d 537a cebc 826d 2a3d
00000150: 6332 1b3e f271 b9bd fc5b 59bc 91cf 873d
00000160: 5de4 613d 8f98 ab3d 8bf8 813d 0445 97bd
00000170: fd62 e43d e83f aa3c 5e7a ad3d f57f 283d
00000180: 16d5 d2bc 0178 8c3d da5f 103e f8ae 1c3e
00000190: 6686 73bd 5ef0 283d 1b28 6dbd 5198 e93d
000001a0: 49f6 ee3d 89a9 c1bc bfd5 813c a0b5 da3d
000001b0: 91aa 9c3d 7612 e4bd b7d6 d23c 2264 413c
000001c0: 983b bcbd 9b6a 2cbd 96b8 b23c eaf9 c53b
000001d0: 4538 243c 0b84 ccbd da69 89bd 1152 7e3d
000001e0: b5bc eebd e02c e9bb 986b 53bd ff00 803d
000001f0: fc90 c03c bbc8 adbd 3c7e 3f3c 862e e33d
00000200: 6fa1 753c 5dfd 5cbd 48c1 31ba 21d1 14be
00000210: c56f 9ebd 6d01 9bbc d6ae 8bbd 75ab c63d
00000220: 2ac0 60bd 7178 ae3c 6aa4 9fbd 70cb acbd
00000230: 336b 5bbb 4e22 e7bd 5f34 21bd 700f 18be
00000240: cf50 c03d abb2 f13d a17f debd 5f58 05bd
00000250: a4eb abbd d118 3fbd b035 b63d 874f 863d
00000260: 8d23 03bc b9ec da3d f413 813d dce5 683d
00000270: e0d8 acbd 0e01 823d ce93 0ebe bb14 7dbd
00000280: dd27 a63b 01dd e53c ecc8 21be b807 56bd
00000290: caf8 0bbd ad05 bdbd 0c5d d7bb bb92 843d
000002a0: 853c 82bd 82cc d4bd 38f5 0dbe e64e babd
000002b0: 7ac8 85bd a174 c0bd edce 5bbd 2c89 8b3d
000002c0: 136f c23c ba2c c33d bea2 cf3d c5c5 8ebd
000002d0: c6c1 943d 0555 bb3d d92c be3d 77a9 be3d
000002e0: b969 b73d e0b8 a5bd fae6 0dbe 833c 2abe
000002f0: 2f07 763d 00a4 d03d 8998 d63d f814 c2bc
00000300: 932d 82bd fb75 2bbd ba62 93bd 00bd 18bd
00000310: 7267 ccbd 5913 803d 5cf8 c3bd e5c4 66bd
00000320: e7d3 cb3d 2951 b3bd c355 583d 117b cc3d
00000330: 995c 043e ee27 c53d bba2 babc 9b80 063e
00000340: 5721 183d bd72 e0bc 07fa 693d b60d 113d
00000350: 84af e53d e9e8 c73d 80ab ba3d 5efa 5a3d
00000360: bfbe 4b3b 1f3f e23c 4f94 ea3c b529 e7bd
00000370: 158f f43b cf81 26bd 6596 3bbd 66ae 823d
00000380: d990 ef3c 65df a7bd 7e71 6abd 35a9 073e
00000390: f309 0b3e 6649 d83d 4182 503d 1866 9abd
000003a0: 80ad 0f3e 60c1 11bb d5c4 a1bb ac58 7c3d
000003b0: 7fda 17bd f36f 83bb fadb 093e 2668 8b3d
000003c0: c747 dfbd 8904 7a3d 15f1 db3d 1227 3bb9
000003d0: 9958 3ebe 61db e6bc 600c 64bd 21cc 47bb
000003e0: 489a 40be 1fbe c23c 943a c83b d796 ec3c
000003f0: fcc0 553e c413 af3d df92 93bc a8aa 4ebc

conv2.bias f4 [16]
-0.08431878 -0.096848994 0.02510815 -0.020307234 0.007913261 0.036173373 0.09754322 0.04832124
0.039082665 -0.0017613162 0.069937766 -0.08125311 -0.07350826 -0.044803016 -0.083834045 0.1124828
00000000: 53af acbd c458 c6bd 9baf cd3c 5b5b a6bc
00000010: 9fa6 013c 882a 143d bdc4 c73d 7eec 453d
00000020: 2515 203d f7db e6ba 883b 8f3d 0868 a6bd
00000030: 808b 96bd 5e83 37bd 2fb1 abbd 625d e63d

conv3.weight f4 [32, 16, 3, 3]
-0.019651739 0.015258017 0.004799594 -0.0011397526 -0.053109623 -0.017852714 -0.06565768 -0.042928442
0.06529274 -0.088671535 -0.0002461953 -0.0020959151 -0.08667496 0.0059707784 0.033912256 0.0529433
0.005916025 0.052981544 -0.008618155 0.01858011 0.013545287 -0.07512043 -0.03235544 -0.06930337
0.05595525 0.032209706 -0.03662689 -0.027750265 0.010063513 -0.08581797 -0.011532059 0.027785787
-0.0014309259 -0.017452074 0.04465217 0.02540255 -0.075356275 0.04468467 -0.07007814 0.044913217
0.06607883 0.0033315604 -0.033745836 -0.04035704 -0.03068717 -0.025980093 -0.04497032 0.07176028
-0.045936715 0.023862286 -0.08857205 0.032009993 0.059743132 -0.06968472 -0.018755414 0.020287987
-0.08229021 -0.05377636 0.029036393 0.075128235 -0.028456802 -0.0023904212 -0.07647054 -0.09371765
0.06161592 0.058322903 -0.036649477 -0.045284547 -0.018390281 0.025946366 -0.08950081 -0.05451575
-0.030484602 -0.048805077 -0.01272628 0.047244042 0.00396392 -0.08497865 0.06869395 0.060377926
0.01879817 0.02667177 0.016446322 0.05590848 -0.09138097 -0.060176644 -0.015002574 -0.028777124
-0.058599636 -0.09470256 -0.06630727 -0.011773333 0.07145204 0.044859767 0.014778851 -0.048663612
-0.031500775 -0.00050865416 -0.0760673 -0.012792149 0.012688489 0.07113114 -0.02608546 0.07817098
0.0023904238 -0.06680713 0.07517119 0.069061704 -0.07784389 -0.060745314 0.026511665 -0.06433626
0.044808824 -0.052252557 -0.037042636 -0.033799037 0.069613315 -0.034329183 -0.026475761 0.040978722
-0.06558095 -0.008607786 -0.07161084 -0.08955472 -0.029268222 -0.008565089 0.055650707 -0.084969826
-0.03700059 0.0067190183 0.022812406 0.036734596 -0.07795936 -0.02200023 0.011334225 -0.07272939
0.029652743 -0.08476069 0.039646134 0.015444089 -0.029607305 0.024527041 0.064674415 0.05631561
0.054856393 -0.040505216 0.012248746 0.016161755 -0.0079615805 -0.04705712 -0.058050144 0.028355423
-0.032837935 -0.217762 -0.18052274 -0.018369379 -0.15463416 -0.13890077 -0.14275695 -0.15646523
-0.071020976 -0.031333916 0.0053154817 -0.005305738 -0.017580546 -0.06153447 -0.0772535 -0.009644748
-0.061907854 0.017555526 0.006120808 -0.0014034373 0.033538397 0.1087356 0.07649743 0.065619
0.05408561 -0.023020465 0.06450964 -0.03785061 0.03621341 -0.11679889 -0.06199852 0.04712754
-0.022937745 0.084340416 0.0040984275 -0.017578509 0.00406573 0.084640965 0.06711328 0.05466764
0.00015660012 -0.017587727 0.0041365693 0.05944038 -0.019621952 0.0473016 0.07512897 0.03263729
-0.14328103 0.01093556 0.0008701515 -0.09034088 0.011811575 -0.13309644 -0.06860648 -0.046217892
-0.045238316 -0.009555463 0.03585052 0.065725245 0.03123919 0.0766468 -0.060687408 -0.09553592
-0.0947488 -0.16214022 -0.08317524 -0.093934126 -0.18656029 -0.11362909 -0.0020161043 -0.1113383
0.019679844 -0.19716206 -0.117274255 -0.05145606 -0.22986224 -0.119788215 -0.11208394 -0.016165083
0.0013548094 -0.07449969 -0.050265446 0.0035023324 0.009599814 -0.04719529 -0.05643364 0.04212464
0.0067565134 -0.04124835 0.13786551 -0.022045365 -0.08152777 -0.0022689358 -0.08997412 -0.06434362
-0.07039979 -0.08968648 0.060456943 0.08599692 0.06412807 -0.06344908 -0.084723994 0.067727365
00000000: affc a0bc c3fc 793c ea45 9d3b c063 95ba
00000010: 7a89 59bd db3f 92bc 8977 86bd bcd5 2fbd
00000020: 33b8 853d 6c99 b5bd c613 81b9 9f5b 09bb
00000030: a482 b1bd 85a6 c33b 94e7 0a3d 13db 583d
00000040: 37db c13b 2d03 593d 2933 0dbc 5135 983c
00000050: 0ded 5d3c bdd8 99bd 2387 04bd edee 8dbd
00000060: 5531 653d 53ee 033d 1406 16bd 8654 e3bc
00000070: 6fe1 243c 55c1 afbd f6f0 3cbc 059f e33c
00000080: e88d bbba a7f7 8ebc 32e5 363d 0219 d03c
00000090: 6454 9abd 4607 373d 2185 8fbd ecf6 373d
000000a0: 5654 873d 4f56 5a3b 1339 0abd 6c4d 25bd
000000b0: a963 fbbc 34d4 d4bc cc32 38bd 0ef7 923d
000000c0: 2328 3cbd d77a c33c 4365 b5bd e91c 033d
000000d0: 37b5 743d ddb6 8ebd f4a4 99bc fe32 a63c
000000e0: c587 a8bd 9a44 5cbd bbdd ed3c d5dc 993d
000000f0: 3d1e e9bc 9da8 1cbb 969c 9cbd 0aef bfbd
00000100: fa60 7c3d ffe3 6e3d c31d 16bd 4a7c 39bd
00000110: 37a7 96bc 798d d43c 334c b7bd e84b 5fbd
00000120: d8ba f9bc d5e7 47bd e381 50bc f882 413d
00000130: c5e3 813b 4909 aebd 6aaf 8c3d d84e 773d
00000140: 9ffe 993c c17e da3c 70ba 863c 4a00 653d
00000150: f225 bbbd c97b 76bd 5bcd 75bc 01be ebbc
00000160: 2c06 70bd 6af3 c1bd 1bcc 87bd f0e4 40bc
00000170: 7255 923d e0be 373d fe22 723c 7f53 47bd
00000180: f506 01bd 3457 05ba 2cc9 9bbd 2996 51bc
00000190: 61e3 4f3c 34ad 913d 2db1 d5bc 1b18 a03d
000001a0: a8a8 1c3b 2dd2 88bd 5af3 993d 3970 8d3d
000001b0: 9e6c 9fbd 14d0 78bd fe2e d93c bbc2 83bd
000001c0: 7589 373d c706 56bd 05ba 17bd dc70 0abd
000001d0: 6d91 8e3d c29c 0cbd b2e3 d8bc 4ed9 273d
000001e0: 4e4f 86bd ac07 0dbc b4a8 92bd 7768 b7bd
000001f0: e9c3 efbc 9654 0cbc fff1 633d a904 aebd
00000200: ee8d 17bd 362b dc3b 15e1 ba3c 0477 163d
00000210: 28a9 9fbd d439 b4bc 2fb3 393c 25f3 94bd
00000220: 4fea f23c 0397 adbd fc63 223d 3409 7d3c
00000230: 058b f2bc efec c83c 0574 843d 32ab 663d
00000240: 19b1 603d cce8 25bd f7ae 483c a865 843c
00000250: 4a71 02bc f7be 40bd fdc5 6dbd a249 e83c
00000260: 1281 06bd 00fd 5ebe f4da 38be 617b 96bc
00000270: 6b58 1ebe 013c 0ebe e12e 12be 6c38 20be
00000280: 7273 91bd fe57 00bd 7e2d ae3b c2db adbb
00000290: 1405 90bc 920b 7cbd 1537 9ebd 0105 1ebc
000002a0: 1793 7dbd 9bd0 8f3c 0f91 c83b 8bf3 b7ba
000002b0: 8f5f 093d c5b0 de3d afaa 9c3d 4163 863d
000002c0: df88 5d3d 6a95 bcbc a11d 843d 3e09 1bbd
000002d0: 8354 143d 4234 efbd 29f2 7dbd cf08 413d
000002e0: f0e7 bbbc abba ac3d 1a4c 863b ce00 90bc
000002f0: d139 853b 3e58 ad3d b072 893d 2deb 5f3d
00000300: 0635 2439 2314 90bc 0f8c 873b c277 733d
00000310: 37be a0bc 53bf 413d 38dd 993d aeae 053d
00000320: 43b8 12be 102b 333c e11a 643a a404 b9bd
00000330: 5685 413c 6f4a 08be 8e81 8cbd f94e 3dbd
00000340: d04b 39bd 848e 1cbc ffd7 123d f59a 863d
00000350: 54e9 ff3c fff8 9c3d 5c93 78bd 56a8 c3bd
00000360: a90b c2bd 1608 26be c857 aabd 8960 c0bd
00000370: a909 3fbe 5eb6 e8bd 9e20 04bb 5605 e4bd
00000380: a037 a13c dae4 49be 7c2d f0bd 97c3 52bd
00000390: 0261 6bbe 8653 f5bd 448c e5bd a36c 84bc
000003a0: dc93 b13a 4b93 98bd 24e3 4dbd 6387 653b
000003b0: 8a48 1d3c d94f 41bd f626 67bd e38a 2c3d
000003c0: be65 dd3b 08f4 28bd 9e2c 0d3e 7b98 b4bc
000003d0: 08f8 a6bd 6db2 14bb 5a44 b8bd 96c6 83bd
000003e0: c42d 90bd 8cad b7bd b3a1 773d 271f b03d
000003f0: 9455 833d 97f1 81bd c683 adbd a5b4 8a3d

conv3.bias f4 [32]
-0.051516782 0.055723246 0.03353897 -0.044738088 0.0102853365 -0.018862573 0.083361454 -0.04181806
-0.045082465 -0.051155217 0.013256267 0.07514516 0.01968619 -0.043294683 0.101363674 0.07740632
0.052325264 -0.009456328 -0.026102792 0.0071716853 -0.03828271 -0.057410035 -0.026734887 0.0502365
1.1652996e-05 -0.0006357862 -0.009556828 0.03448552 -0.059524085 -0.023841338 0.021282792 0.011128298
00000000: 4303 53bd 0f3e 643d 2960 093d 493f 37bd
00000010: d483 283c af85 9abc 69b9 aa3d 6a49 2bbd
00000020: 64a8 38bd 2288 51bd d030 593c b5e5 993d
00000030: ef44 a13c c455 31bd c297 cf3d 3487 9e3d
00000040: 0453 563d b7ee 1abc 86d5 d5bc 7500 eb3b
00000050: 55ce 1cbd c926 6bbd 1f03 dbbc cac4 4d3d
00000060: 3d81 4337 e4aa 26ba 3e94 1cbc b040 0d3d
00000070: 87cf 73bd e94e c3bc 4059 ae3c 7753 363c

conv4.weight f4 [64, 32, 3, 3]
-0.03724441 -0.0061424524 -0.0014076754 -0.01927067 -0.014402546 -0.018095013 -0.009397659 -0.047042206
0.056989998 0.0046857763 0.08229226 -0.040758558 0.03436253 0.02774809 0.0544305 0.09224469
0.047195807 0.15405485 -0.045924645 0.0064557083 -0.007940418 -0.0768857 0.0381942 0.0028114037
0.08784148 0.091527574 0.1632238 0.0934275 -0.029270964 0.011277681 -0.013153041 -0.05715727
0.033363707 0.029666806 -0.022171834 0.033103585 0.017453505 0.051204372 0.060090598 0.030049883
-0.06684548 0.0020473425 -0.068568826 0.021330627 0.06891645 -0.056135796 -0.04253204 -0.0528372
-0.0055248253 0.021594528 -0.043224014 -0.0038339645 -0.020512942 0.062628776 -0.04641345 -0.024252573
0.014096061 -0.030980036 0.06346218 -0.031981304 0.009421163 -0.0037650699 0.058958113 0.025370175
0.04294873 -0.028731178 -0.10065398 -0.065664046 -0.07173369 -0.03005151 0.011486247 0.101482384
0.0402457 0.024097556 0.041775823 0.0013581001 -0.048393577 -0.01175004 0.04554508 0.037365083
-0.009666529 -0.04468697 -0.16724013 -0.098797835 -0.16432017 -0.0075007463 -0.1247734 0.06866245
-0.10956426 0.05424829 0.08961699 -0.04677685 0.028914064 -0.008530286 -0.08693919 0.06164422
-0.02150574 -0.02631124 0.109158486 0.04814687 -0.013429433 0.02098324 -0.0013158974 0.06662335
-0.0029528316 -0.018060092 0.109442234 0.05108979 -0.012201637 0.010817253 0.004609679 -0.12514731
0.010730239 -0.0026122944 -0.05383518 -0.07738003 0.041337643 0.05209154 -0.055027682 -0.0738068
-0.06793739 -0.0812874 -0.031694215 0.06863762 0.03183039 0.08355073 0.077811085 0.11160717
0.07192187 0.10081067 0.10167286 0.053527698 0.19616358 0.09183465 0.13312344 0.052399818
0.016655257 -0.019129448 -0.022445234 0.036498867 0.10739958 0.09193148 -0.03519851 -0.05691417
-0.028575238 -0.045812443 -0.006495886 -0.051352073 -0.022359116 0.015994305 0.015455854 0.03851944
0.11516944 0.026969295 0.020693146 0.033791475 -0.046799492 0.040424827 0.03123233 0.02951715
-0.040150862 -0.013521146 0.048505303 -0.028847292 0.0063201822 -0.04201986 -0.015325457 -0.022007238
0.04500256 -0.03268961 -0.015988866 0.08949064 0.050306182 0.027382918 -0.06029453 0.00076348707
0.044025425 0.0323567 -0.035246782 0.019030979 -0.01613464 -0.15410867 -0.109876715 -0.12909448
-0.08677121 -0.08609061 0.08239332 -0.06935134 0.09589772 0.003946957 0.008308341 0.006548634
-0.0035600842 -0.053771596 -0.037918646 -0.08076112 -0.004378671 0.07466159 0.08745681 0.04799176
0.0061632097 -0.0429347 -0.008249121 0.032167453 0.0762368 0.06404155 0.026522825 -0.14400263
-0.10226746 0.02343059 -0.07843482 -0.03536444 -0.032500744 0.06821448 0.06489714 0.13815677
0.052457295 0.0058990996 0.0012951748 -0.0692881 -0.101853564 -0.05058624 0.03602867 0.054075707
0.00078810216 -0.060736347 -0.11793241 -0.08619754 -0.2021158 -0.05603051 -0.10858129 0.018577289
-0.079080746 0.05493724 -0.005862673 -0.030968335 -0.013851742 -0.012938185 0.026749471 0.010796075
-0.01597588 0.04823974 0.009181046 -0.015779562 -0.06199409 -0.051216464 -0.023915503 -0.016227972
0.04819673 0.09504305 0.0757495 0.07115521 -0.051278878 -0.018875722 0.0083071515 -0.059684113
00000000: 988d 18bd a046 c9bb c081 b8ba 86dd 9dbc
00000010: a8f8 6bbc fe3b 94bc a4f8 19bc 54af 40bd
00000020: 586e 693d 248b 993b d888 a83d 72f2 26bd
00000030: b9bf 0c3d f64f e33c 84f2 5e3d c9ea bc3d
00000040: 6450 413d 8ec0 1d3e 7b1b 3cbd 688a d33b
00000050: 8718 02bc 4076 9dbd 8571 1c3d 873f 383b
00000060: 3ce6 b33d cf72 bb3d 2424 273e eb56 bf3d
00000070: a9c9 efbc 06c6 383c da7f 57bc be1d 6abd
00000080: 62a8 083d cd07 f33c b5a1 b5bc a097 073d
00000090: a7fa 8e3c adbb 513d 8f21 763d 2c2b f63c
000000a0: 48e6 88bd b52c 063b d06d 8cbd 91bd ae3c
000000b0: 1124 8d3d a6ee 65bd 1436 2ebd d26b 58bd
000000c0: 9809 b5bb 02e7 b03c aa0b 31bd 4043 7bbb
000000d0: c20a a8bc 8443 803d 081c 3ebd 55ad c6bc
000000e0: 2af3 663c d8c9 fdbc 76f8 813d d4fe 02bd
000000f0: 395b 1a3c 64bf 76bb 107e 713d 1dd5 cf3c
00000100: 02eb 2f3d a65d ebbc ad23 cebd df7a 86bd
00000110: 1de9 92bd 962e f6bc d030 3c3c ffd5 cf3d
00000120: add8 243d 3d68 c53c 201d 2b3d 4702 b23a
00000130: 5838 46bd 3d83 40bc 7a8d 3a3d 210c 193d
00000140: 5c60 1ebc af09 37bd ff40 2bbe 8556 cabd
00000150: 8c43 28be d2c8 f5bb 3289 ffbd e69e 8c3d
00000160: 3a63 e0bd 7433 5e3d 1d89 b73d 1599 3fbd
00000170: 30dd ec3c 9dc2 0bbc 2d0d b2bd a67e 7c3d
00000180: ce2c b0bc ab8a d7bc 7c8e df3d a735 453d
00000190: 2007 5cbc 0be5 ab3c 317a acba d371 883d
000001a0: 4b84 41bb c2f2 93bc 4023 e03d 8743 513d
000001b0: 60e9 47bc d93a 313c ca0c 973b 9e26 00be
000001c0: e2cd 2f3c 0733 2bbb 4782 5cbd 6c79 9ebd
000001d0: a951 293d f05d 553d b564 61bd 0528 97bd
000001e0: c222 8bbd 027a a6bd cbd1 01bd e191 8c3d
000001f0: 9560 023d a51c ab3d 6b5b 9f3d 4d92 e43d
00000200: c64b 933d d375 ce3d dc39 d03d dc3f 5b3d
00000210: 1bdf 483e ce13 bc3d 8351 083e 31a1 563d
00000220: 9b70 883c 5cb5 9cbc 11df b7bc d67f 153d
00000230: 50f4 db3d 9246 bc3d 502c 10bd d51e 69bd
00000240: 9e16 eabc d4a5 3bbd 71db d4bb 8d56 52bd
00000250: 772a b7bc 7d06 833c 8d3a 7d3c 8fc6 1d3d
00000260: f5dd eb3d b6ee dc3c ac84 a93c ee68 0a3d
00000270: d3b0 3fbd 8194 253d f1da ff3c f3cd f13c
00000280: 3b75 24bd cc87 5dbc 7fad 463d 2851 ecbc
00000290: 8819 cf3b 041d 2cbd a017 7bbc 8648 b4bc
000002a0: 9b54 383d 8ae5 05bd 15fb 82bc de46 b73d
000002b0: db0d 4e3d 2452 e03c 66f7 76bd c024 483a
000002c0: 0154 343d 7688 043d ee5e 10bd dbe6 9b3c
000002d0: cb2c 84bc aace 1dbe 0b07 e1bd 5831 04be
000002e0: 1bb5 b1bd 4650 b0bd d4bd a83d 1308 8ebd
000002f0: 0666 c43d 7a55 813b b51f 083c ec95 d63b
00000300: 4d50 69bb 9b3f 5cbd 9550 1bbd 1666 a5bd
00000310: f47a 8fbb 2de8 983d 8e1c b33d 0293 443d
00000320: c0f4 c93b 4cdc 2fbd 5227 07bc 05c2 033d
00000330: 0a22 9c3d 3728 833d 6546 d93c 6d75 13be
00000340: 9a71 d1bd 82f1 bf3c 6fa2 a0bd 4eda 10bd
00000350: 801f 05bd 09b4 8b3d cbe8 843d f878 0d3e
00000360: 76dd 563d 3c4d c13b dbc2 a93a ebe6 8dbd
00000370: 9a98 d0bd 8433 4fbd cc92 133d 7d7e 5d3d
00000380: a498 4e3a adc6 78bd 8c86 f1bd 5688 b0bd
00000390: 72f7 4ebe 4080 65bd de5f debd 662f 983c
000003a0: 16f5 a1bd df05 613d aa1b c0bb 4eb1 fdbc
000003b0: 6bf2 62bc aefa 53bc b521 db3c 05e2 303c
000003c0: d9df 82bc 0997 453d 196c 163c 2444 81bc
000003d0: 84ed 7dbd 5bc8 51bd 72ea c3bc 86f0 84bc
000003e0: ef69 453d eea5 c23d 8e22 9b3d d3b9 913d
000003f0: cd09 52bd 42a1 9abc b81a 083c 5477 74bd

conv4.bias f4 [64]
0.05249725 -0.017651284 0.041150384 0.062442295 -0.036540624 -0.04087993 0.05212578 0.04012968
-0.015730625 0.008813632 0.070231 -0.028222084 0.07230452 0.012269747 0.0638068 0.040507834
-0.016869737 -0.013909716 -0.046405874 -0.06022931 0.079065755 0.07222979 -0.016684161 -0.010433511
0.08702527 0.060803644 -0.014380995 0.06570279 -0.024543243 -0.009830274 0.058558512 -0.03219971
0.030258734 0.029897831 -0.0022451822 -0.037473455 0.014824736 -0.06406413 0.01366142 0.00468013
-0.0298901 -0.0130359195 0.011119462 -0.021525195 -0.014407099 -0.05163803 0.06017181 -0.02452825
-0.028835652 0.036953036 -0.05115019 -0.060912624 0.024389602 0.0587661 0.0341504 -0.057283204
0.046726864 -0.06134384 0.08055716 0.0057481877 0.05304474 -0.035739537 0.032983832 0.016299509
00000000: 5b07 573d 6d99 90bc 4e8d 283d 7ec3 7f3d
00000010: 9fab 15bd b771 27bd d881 553d 055f 243d
00000020: 83dd 80bc 0d67 103c 45d5 8f3d 0032 e7bc
00000030: 6414 943d 0d07 493c 24ad 823d 8beb 253d
00000040: 6732 8abc 94e5 63bc 1614 3ebd 02b3 76bd
00000050: 3aed a13d 36ed 933d 39ad 88bc 51f1 2abc
00000060: 4e3a b23d 3e0d 793d 449e 6bbc 2f8f 863d
00000070: e90e c9bc 280f 21bc 0ddb 6f3d d8e3 03bd
00000080: 2ae1 f73c 4cec f43c e823 13bb c47d 19bd
00000090: 73e3 723c 0e34 83bd 26d4 5f3c c75b 993b
000000a0: 15dc f4bc 9c94 55bc 672e 363c 9b55 b0bc
000000b0: c10b 6cbc 6682 53bd b776 763d 78ef c8bc
000000c0: bf38 ecbc 115c 173d dd82 51bd 847f 79bd
000000d0: b4cc c73c b9b4 703d 4ae1 0b3d cba1 6abd
000000e0: ab64 3f3d ae43 7bbd 27fb a43d 4b5b bc3b
000000f0: 7145 593d 9f63 12bd 0e1a 073d 8c86 853c

fc1.weight f4 [100, 64]
0.12900698 -0.004926214 -0.07653842 0.13730963 0.12393042 0.11931828 -0.0913604 0.12954652
0.018051933 0.109106116 -0.18628539 -0.021849217 -0.10933224 -0.038601752 0.025413292 -0.013209437
-0.11207802 0.016208064 -0.12645149 0.0022710264 -0.027585518 -0.012614388 0.078550644 0.10401581
0.15261716 -0.13499478 -0.130647 0.05540273 0.05073845 0.02217439 -0.018779626 0.02393807
0.004467588 -0.077098444 -0.08689967 0.077850945 0.05107711 0.057553247 0.050440107 0.12637858
-0.08398674 -0.0049681542 -0.012719805 -0.074835695 0.025017746 -0.11138176 -0.15419795 -0.07503512
0.059557077 0.08471962 -0.112090826 -0.06721289 -0.11407767 -0.03225481 0.052897282 0.07636919
0.11092501 -0.015295395 -0.044118185 0.068731375 0.15684757 0.16677685 0.049769048 -0.050967973
0.02699548 -0.1132952 -0.006132528 0.018027142 0.10832077 0.11725621 0.07218364 -0.07711846
-0.12332533 0.0029566735 0.05768183 0.08601041 -0.051998287 -0.041251525 0.0053039193 0.01329878
0.007935971 0.06385678 -0.022280693 0.015519604 -0.08911422 -0.052049667 -0.009459183 0.10292761
0.088483155 0.08719611 0.0599325 -0.06672187 -0.039051056 -0.055439293 -0.015474826 0.028965697
0.086048454 0.033557057 -0.03832899 -0.089643866 -0.09581773 0.055972517 -0.027967557 -0.10836591
0.030843288 0.0899989 -0.0814423 -0.0038016587 -0.010238692 0.056410983 0.086863905 -0.006741613
0.014963388 -0.032898962 -0.03013058 -0.054897234 0.020725936 0.051227286 -0.07096867 -0.11689596
-0.07064715 0.0519816 0.070105255 -0.114430234 0.008290663 -0.08867803 -0.07473476 -0.04666406
0.15621632 -0.008044145 -0.13337032 -0.025491081 0.11745024 0.06538797 -0.1485502 0.0073644966
0.12797415 0.13888319 -0.015731212 0.08758084 -0.20557125 0.093254216 -0.003078012 -0.0063654073
-0.0306981 -0.11305928 0.008971549 0.11717562 0.004171335 -0.16168724 -0.04987672 0.08558867
-0.008152097 -0.045654956 -0.06947751 0.011557202 0.11967718 -0.00073566294 0.13327546 0.015005228
0.010189653 -0.03435585 0.024507241 0.048443493 -0.04122981 -0.10792546 -0.10360074 -0.038956806
-0.06372422 0.023017945 -0.04369427 0.014666716 0.07987358 -0.027307592 0.010656722 0.1178621
-0.059870694 -0.08568084 -0.11855197 -0.009721406 -0.017503154 0.11112189 0.10276364 0.041643623
0.102219716 0.04363293 -0.12033361 0.11241196 0.16855358 0.07162523 -0.049548548 -0.061017312
0.1250175 0.0010834902 -0.15021557 0.14440456 0.08747278 -0.09760063 -0.09052405 -0.025356729
-0.009557823 0.0756792 -0.029792566 0.07758213 -0.2733919 -0.0086634355 0.08250622 -0.065038465
0.072222754 -0.054244645 -0.020993602 0.06365618 0.051571786 -0.07504453 0.034073867 0.12026932
0.16393091 -0.11847824 0.021280212 0.02776512 0.15852974 0.070861325 -0.051834866 0.17892432
0.14723006 -0.0075481683 0.10101833 0.07948765 0.013503894 0.111192375 -0.11479827 -0.035311136
0.047854234 0.07735017 0.08181861 0.064043775 0.05458765 -0.10533212 -0.07421482 0.0062624975
-0.11326683 -0.041519716 0.034214657 0.054039016 0.09137087 0.040563688 0.00026725698 -0.10051052
0.072752416 -0.0474908 -0.061559405 -0.08179426 0.034690976 0.15626574 0.078008115 -0.09777097
00000000: 681a 043e 146c a1bb 2dc0 9cbd e59a 0c3e
00000010: 3bcf fd3d 245d f43d 291b bbbd d8a7 043e
00000020: a6e1 933c 0773 df3d 99c1 3ebe 21fd b2bc
00000030: 95e9 dfbd df1c 1ebd 892f d03c 656c 58bc
00000040: 2989 e5bd c6c6 843c 807c 01be 80d5 143b
00000050: 06fb e1bc 94ac 4ebc 29df a03d 3e06 d53d
00000060: ac47 1c3e 123c 0abe 54c8 05be f9ed 623d
00000070: 1fd3 4f3d 11a7 b53c bbd7 99bc c519 c43c
00000080: d864 923b cae5 9dbd 74f8 b1bd 5170 9f3d
00000090: 3b36 513d f4bc 6b3d 499a 4e3d 6369 013e
000000a0: 3d01 acbd e6cb a2bb bb66 50bc 7543 99bd
000000b0: 04f2 cc3c 1f1c e4bd 11e6 1dbe 03ac 99bd
000000c0: 1ff2 733d 7b81 ad3d e08f e5bd e9a6 89bd
000000d0: 8ea1 e9bd 9f1d 04bd d2aa 583d 7367 9c3d
000000e0: a72c e33d 8999 7abc 45b5 34bd 09c3 8c3d
000000f0: a69c 203e 8dc7 2a3e a1da 4b3d cbc3 50bd
00000100: a025 dd3c 5007 e8bd 60f3 c8bb a8ad 933c
00000110: 48d7 dd3d 0624 f03d 04d5 933d 48f0 9dbd
00000120: fe91 fcbd c0c4 413b c843 6c3d 3a26 b03d
00000130: 28fc 54bd 5cf7 28bd 80cc ad3b 20e3 593c
00000140: e005 023c 58c7 823d 0086 b6bc f045 7e3c
00000150: 8481 b6bd 0832 55bd b0fa 1abc b6cb d23d
00000160: a836 b53d e093 b23d c87b 753d 7aa5 88bd
00000170: 00f4 1fbd 5014 63bd 208a 7dbc 7849 ed3c
00000180: 2c3a b03d 2073 093d dcfe 1cbd 3497 b7bd
00000190: 163c c4bd 7043 653d 381c e5bc f2ee ddbd
000001a0: 10ab fc3c 5851 b83d 38cb a6bd 4025 79bb
000001b0: 30c0 27bc 340f 673d b4e5 b13d c0e8 dcbb
000001c0: 0029 753c 10c1 06bd 68d4 f6bc ecdb 60bd
000001d0: 70c9 a93c b4d3 513d 0658 91bd 2667 efbd
000001e0: 74af 90bd a8ea 543d 5893 8f3d 665a eabd
000001f0: 90d5 073c d49c b5bd 8a0e 99bd d022 3fbd
00000200: 2cf7 1f3e 97cb 03bc 3b92 08be acd2 d0bc
00000210: c089 f03d 21ea 853d 8b1d 18be e051 f13b
00000220: a80b 033e 6537 0e3e bede 80bc 955d b33d
00000230: 4581 52be 11fc be3d 79b8 49bb e894 d0bb
00000240: 957a fbbc a08b e7bd 67fd 123c c5f9 ef3d
00000250: b2af 883b 5791 25be 884b 4cbd 1d49 af3d
00000260: 6090 05bc b100 3bbd 3a4a 8ebd 6b5a 3d3c
00000270: 4f19 f53d 81d9 40ba 5d79 083e 7dd8 753c
00000280: 81f2 263c b8b8 0cbd 69c3 c83c af6c 463d
00000290: 97e0 28bd 0608 ddbd a02c d4bd 2c91 1fbd
000002a0: d881 82bd 2190 bc3c c3f8 32bd aa4c 703c
000002b0: c294 a33d 2cb4 dfbc 8899 2e3c af61 f13d
000002c0: f93a 75bd 7079 afbd 60cb f2bd 8846 1fbc
000002d0: c662 8fbc e093 e33d be75 d23d 8192 2a3d
000002e0: 9258 d13d 71b8 323d 7871 f6bd 3e38 e63d
000002f0: 4f99 2c3e 40b0 923d 6bf3 4abd 4aed 79bd
00000300: 9604 003e e603 8e3a 1cd2 19be cade 133e
00000310: ee24 b33d d7e2 c7bd ac64 b9bd eab8 cfbc
00000320: 6a98 1cbc b2fd 9a3d 8a0f f4bc 61e3 9e3d
00000330: 06fa 8bbe 15f1 0dbc 05f9 a83d e332 85bd
00000340: 86e9 933d a22f 5ebd c6fa abbc 2c5e 823d
00000350: f03c 533d f2b0 99bd 0a91 0b3d c34f f63d
00000360: 81dd 273e b8a4 f2bd d753 ae3c ad73 e33c
00000370: 9f55 223e be1f 913d cc50 54bd f037 373e
00000380: 7ac3 163e a056 f7bb b3e2 ce3d 6cca a23d
00000390: 703f 5d3c d4b8 e33d 5b1b ebbd 69a2 10bd
000003a0: cd02 443d c469 9e3d 8490 a73d 6229 833d
000003b0: 4d97 5f3d 5eb8 d7bd f1fd 97bd a335 cd3b
000003c0: 71f8 e7bd 9410 2abd ab24 0c3d 0458 5d3d
000003d0: a720 bb3d 1c26 263d a01e 8c39 76d8 cdbd
000003e0: 38ff 943d b785 42bd b725 7cbd c083 a7bd
000003f0: 2018 0e3d 2004 203e b8c2 9f3d 253c c8bd

fc1.bias f4 [100]
0.05952169 -0.09994112 0.1337691 0.124403045 -0.050691336 0.059204884 -0.061410043 0.005938166
-0.09087947 0.049932502 0.094557695 -0.0103234425 0.03935767 0.022395326 -0.10547599 0.116385214
0.05629799 0.019130953 0.06887163 0.13099718 0.07767124 -0.11637406 0.05144203 0.061856408
0.10944756 -0.045964334 -0.10236098 -0.07583006 -0.045871392 0.025316052 0.053548932 0.058434166
0.02304819 0.0048642373 0.08112123 0.06672068 0.09059963 0.14114162 -0.10504578 -0.09248243
-0.121042304 0.11627189 -0.084360674 -0.08624277 -0.0831719 -0.07617073 0.11769441 -0.044799075
-0.053655528 0.12461448 -0.008805767 -0.03437835 -0.08707577 0.003553193 0.0916747 0.009121021
0.09696266 -0.055674832 -0.035346083 0.0005160299 -0.110898465 0.051946502 -0.0880242 -0.10202743
0.07782837 0.0068533937 0.04282726 0.039767362 0.11980062 -0.056380715 0.03171723 0.11988037
-0.044416312 0.04594592 -0.060758322 0.053033303 0.054303255 -0.12279423 0.01844864 0.15339577
-0.12080778 0.1426833 -0.030786714 0.045925353 -0.078880705 0.06858304 -0.07370031 0.03385188
0.03054551 -0.0013861745 -0.07633236 -0.053581104 0.11301183 0.19400641 0.11956891 0.05348735
0.014481493 0.16142014 0.14282481 -0.10512404
00000000: 04cd 733d eead ccbd c4fa 083e 06c7 fe3d
00000010: b8a1 4fbd d280 723d 1989 7bbd f294 c23b
00000020: 041f babd 0686 4c3d 77a7 c13d a823 29bc
00000030: 8235 213d 6776 b73c cc03 d8bd 5f5b ee3d
00000040: b998 663d 84b8 9c3c 920c 8d3d 2024 063e
00000050: 1912 9f3d 8655 eebd e1b4 523d 255d 7d3d
00000060: 0b26 e03d 1945 3cbd a2a2 d1bd ca4c 9bbd
00000070: a4e3 3bbd 9c63 cf3c 2056 5b3d aa58 6f3d
00000080: 8fcf bc3c 2e64 9f3b e322 a63d daa4 883d
00000090: 4c8c b93d 6e87 103e 3e22 d7bd 6e67 bdbd
000000a0: 07e5 f7bd f51f ee3d 4ac5 acbd 0da0 b0bd
000000b0: 0756 aabd 66ff 9bbd c409 f13d 3c7f 37bd
000000c0: e6c5 5bbd e035 ff3d 1046 10bc 50d0 0cbd
000000d0: c854 b2bd b0dc 683b f2bf bb3d 5670 153c
000000e0: 5c94 c63d 4b0b 64bd 0ec7 10bd 2e46 073a
000000f0: bc1e e3bd dbc5 543d 0846 b4bd c2f3 d0bd
00000100: 7b64 9f3d 6f92 e03b a36b 2f3d 1ae3 223d
00000110: 075a f53d 77ef 66bd ede9 013d d783 f53d
00000120: e1ed 35bd ca31 3c3d b8dd 78bd 7339 593d
00000130: 176d 5e3d 8b7b fbbd 9a21 973c c813 1d3e
00000140: 126a f7bd 921b 123e 6b34 fcbc 391c 3c3d
00000150: 358c a1bd 4475 8c3d 30f0 96bd 45a8 0a3d
00000160: 943a fa3c 4cb0 b5ba 2454 9cbd dc77 5bbd
00000170: bf72 e73d 9ea9 463e 8be0 f43d 8d15 5b3d
00000180: c943 6d3c 524b 253e ab40 123e 464b d7bd

fc2.weight f4 [2, 100]
0.08574332 -0.07323818 -0.009307118 0.08311433 -0.020431563 -0.05845287 -0.028150635 -0.1171767
-0.062108476 0.1347993 -0.16195337 -0.052690953 -0.003039064 -0.24100268 0.0806595 0.13721085
-0.11790652 0.11175484 0.06678946 -0.17489412 -0.114153706 -0.042992424 -0.16242784 -0.16520485
-0.13403441 0.07155508 0.03517122 0.015669845 -0.17496593 -0.1287422 0.117368035 -0.11421845
0.118965134 -0.14282128 0.14916936 -0.101076804 0.0620051 -0.007421487 0.056025468 0.06119854
0.08353679 0.088254295 0.02070637 -0.17528518 0.02149628 -0.025425747 0.113839105 -0.07387722
0.012971689 -0.19273691 -0.15635906 -0.06981341 -0.085786976 -0.1003902 0.14190711 0.108788475
-0.088689744 -0.07432768 -0.05040809 -0.10826388 -0.028856255 0.027281363 0.0048145056 0.0283503
0.03563379 -0.008163903 -0.16422988 -0.12707393 0.0017740949 0.15753008 -0.11546541 0.13057496
0.093298025 0.049363885 -0.08253676 -0.2096302 -0.074249186 -0.13269384 0.0101450225 0.08015785
-0.00023058802 -0.17222771 0.057983432 0.14134601 -0.06068882 0.089946836 -0.021539615 0.04337506
0.088324085 0.036906727 0.043935917 -0.16879937 0.011374156 0.15193462 0.20426069 -0.10120975
-0.14571048 -0.08833499 -0.15612121 -0.00401368 -0.034231428 0.08401545 -0.12617972 -0.084706455
0.04379753 0.18478177 0.08140828 0.09773334 -0.045076806 -0.0055759395 0.036382265 9.834572e-06
-0.1334375 0.12585457 0.06945657 -0.007821964 0.115845956 -0.046945583 -0.105152704 0.1678249
0.04993453 0.048152797 0.23186183 0.1283276 0.1621325 0.08381763 0.098252006 -0.04559784
0.14047958 0.2340236 -0.1460574 0.06448691 -0.04203484 0.078286976 -0.037593823 0.051490456
-0.073828034 -0.13029669 -0.08663291 0.0034667626 0.072868474 -0.044676363 -0.023449898 0.07370358
0.05138854 0.081779785 -0.04460799 -0.009503471 0.04687863 0.16371177 0.011928291 -0.06379421
0.011368081 0.16840403 0.00079444156 -0.04990895 0.14535886 0.08297216 -0.04532443 0.13603841
-0.05712117 -0.094421074 -0.034604706 0.050766718 -0.09408089 -0.15817942 0.14324152 0.12521407
-0.13279884 -0.12344491 0.123779684 -0.065047786 -0.015413836 -0.012197938 -0.06460384 0.07781346
0.1457639 0.07957561 -0.07049348 -0.08134226 0.081163086 0.2040164 -0.08439873 -0.008943566
0.05204323 -0.08862462 0.049053796 -0.14897968 -0.07421846 -0.112872034 -0.07854626 0.018684546
0.0063753626 -0.20705268 -0.21370028 0.09057571 0.1911472 0.20203595 0.1254719 -0.05634091
00000000: 329a af3d e6fd 95bd e27c 18bc d937 aa3d
00000010: 1860 a7bc 476c 6fbd 299c e6bc 56fa efbd
00000020: 7565 7ebd d408 0a3e 1bd7 25be 78d2 57bd
00000030: 082b 47bb 68c9 76be cf30 a53d 0081 0c3e
00000040: f978 f1bd b9df e43d eac8 883d 7217 33be
00000050: 6bc9 e9bd d318 30bd 7c53 26be 762b 29be
00000060: 5140 09be 788b 923d b20f 103d 0c5e 803c
00000070: 452a 33be ffd4 03be a75e f03d 5deb e9bd
00000080: fea3 f33d be3f 12be dabf 183e 5b01 cfbd
00000090: 0ff9 7d3d f22f f3bb f67a 653d 52ab 7a3d
000000a0: 5615 ab3d abbe b43d 68a0 a93c f57d 33be
000000b0: f718 b03c a849 d0bc 7a24 e93d f14c 97bd
000000c0: 3587 543c d35c 45be 971c 20be 55fa 8ebd
000000d0: 15b1 afbd 6199 cdbd 1950 113e 7ecc de3d
000000e0: f8a2 b5bd 1c39 98bd b778 4ebd 74b9 ddbd
000000f0: f463 ecbc 2a7d df3c 00c3 9d3b e33e e83c
00000100: bdf4 113d e4c1 05bc e12b 28be ab1f 02be
00000110: bf88 e83a 914f 213e 2179 ecbd 71b5 053e
00000120: 0913 bf3d c931 4a3d 0809 a9bd 4da9 56be
00000130: f50f 98bd e5e0 07be 4f37 263c cd29 a43d
00000140: 00ca 71b9 765c 30be 0980 6d3d 02bd 103e
00000150: d794 78bd 0c36 b83d d973 b0bc 0caa 313d
00000160: 42e3 b43d 822b 173d 26f6 333d bed9 2cbe
00000170: ab5a 3a3c c094 1b3e b729 513e 0f47 cfbd
00000180: 2135 15be fae8 b4bd 3dde 1fbe 3085 83bb
00000190: 4136 0cbd 4b10 ac3d 4235 01be 947a adbd
000001a0: 0a65 333d 6f37 3d3e 62b9 a63d 6b28 c83d
000001b0: 75a2 38bd 5fb6 b6bb 9205 153d 2aff 2437
000001c0: d7a3 08be 05e0 003e 3f3f 8e3d b227 00bc
000001d0: a540 ed3d 034a 40bd 4d5a d7bd 4ada 2b3e
000001e0: 2688 4c3d de3b 453d 306d 6d3e 4f68 033e
000001f0: 1006 263e 94a8 ab3d 5938 c93d cdc4 3abd
00000200: e1d9 0f3e e2a3 6f3e 1290 15be b711 843d
00000210: b92c 2cbd ec54 a03d fbfb 19bd a8e7 523d
00000220: 2733 97bd 7f6c 05be 986c b1bd a032 633b
00000230: 113c 953d 90fe 36bd 001a c0bc e7f1 963d
00000240: ca7c 523d 297c a73d deb6 36bd 72b4 1bbc
00000250: ce03 403d 0fa4 273e e16e 433c 8aa6 82bd
00000260: 3041 3a3c 1b72 2c3e 1242 503a 546d 4cbd
00000270: f4d8 143e 4fed a93d 1ca6 39bd a74d 0b3e
00000280: e3f7 69bd d65f c1bd aabd 0dbd c3f0 4f3d
00000290: 7bad c0bd c9f9 21be e8ad 123e 1e38 003e
000002a0: 6bfc 07be afd0 fcbd 3480 fd3d c637 85bd
000002b0: 508a 7cbc dcd9 47bc 054f 84bd aa5c 9f3d
000002c0: 2243 153e 8af8 a23d e35e 90bd c596 a6bd
000002d0: d538 a63d ade9 503e 3ed9 acbd 0988 12bc
000002e0: 482b 553d d380 b5bd a2ec 483d 218e 18be
000002f0: d9ff 97bd 7429 e7bd dddc a0bd 5510 993c
00000300: 6be8 d03b 9e05 54be 3fd4 5abe c27f b93d
00000310: 17bc 433e 83e2 4e3e b57b 003e bac5 66bd

fc2.bias f4 [2]
0.111048065 0.008412217
00000000: 2b6d e33d 65d3 093c
